local/dippermodels.npz (npz, 35986 bytes, 8 tensors)

model1params f8 [8]
000000 f0 77 46 9a ac b0 23 40 47 67 94 46 90 b0 21 40
       9.845066853620636 8.8448507362515
000010 a7 88 1b e8 10 a9 f6 3f 00 a3 86 02 50 09 b1 3f
       1.4162758890820812 0.0665483480612572
000020 ec 98 0c ee 16 9a 5a 40 95 da 3a 1c 6c 27 ea 3f
       106.40764952879152 0.8173122931828681
000030 11 2b 7e c3 ba ea d0 3f 00 00 00 00 00 00 f0 3f
       0.2643267544851123 1.0

allpreddB f8 [4, 520]
000000 da 76 13 14 28 17 20 40 80 e3 4b b0 53 7f 1c 40
       8.045227649093636 7.124342684394719
000010 9f dd cb d5 91 73 1c 40 6f 6a 69 ff cb 67 1c 40
       7.112861004417396 7.101364126977031
000020 2e 73 70 2a 02 5c 1c 40 b1 1f 2a 54 34 50 1c 40
       7.089852011788748 7.07832461840728
000030 a4 d2 dc 79 62 44 1c 40 c5 25 cc 98 8c 38 1c 40
       7.066781906226115 7.05522383447664
000040 16 e6 38 ae b2 2c 1c 40 18 38 01 29 df 1c 1c 40
       7.0436503622272735 7.028195038508805
000050 90 76 29 c8 fb 10 1c 40 38 b9 92 54 14 05 1c 40
       7.016585471659383 7.004960366683285
000060 b6 7e 71 cb 28 f9 1b 40 7c cd 5a b5 3d e9 1b 40
       6.993319681932624 6.97777446142879
000070 8a 5e b2 99 48 dd 1b 40 12 86 fa b5 50 cd 1b 40
       6.966097260963247 6.950503199973825
000080 ff b7 5e f8 51 c1 1b 40 50 a5 5c 32 4d b1 1b 40
       6.938789253979848 6.923146044640205
000090 b1 e9 3b c3 44 a5 1b 40 f0 5e 14 06 33 95 1b 40
       6.911395121127883 6.8957024526532535
0000a0 59 4a b7 d5 20 89 1b 40 e8 3b 5c 0c 02 79 1b 40
       6.883914317428741 6.8681718760771915
0000b0 53 a9 c9 c4 db 68 1b 40 76 f9 14 20 ba 5c 1b 40
       6.852400851067006 6.8405537617494385
0000c0 d7 9c d0 aa 86 4c 1b 40 78 51 0c a4 4b 3c 1b 40
       6.824732464773851 6.8088822968023734
0000d0 c6 8f b2 04 09 2c 1b 40 42 d9 a3 c5 be 1b 1b 40
       6.793003152273689 6.777094925046471
0000e0 d6 a5 b6 df 6c 0b 1b 40 e2 50 b7 4b 13 fb 1a 40
       6.761157508395135 6.745190795005529
0000f0 2e 06 68 02 b2 ea 1a 40 b3 ae 80 fc 48 da 1a 40
       6.7291946769706055 6.7131690457860484
000100 25 dd ae 32 d8 c9 1a 40 5e ba 95 9d 5f b9 1a 40
       6.69711379234585 6.681028806937858
000110 30 98 11 e2 bd a4 1a 40 ef 14 76 a8 33 94 1a 40
       6.660880596469767 6.644728309828891
000120 d2 a9 5c 8b a1 83 1a 40 76 9e 96 c3 df 6e 1a 40
       6.628545930414889 6.608275466983846
000130 5a f6 00 cb 3b 5e 1a 40 67 4a 45 d6 8f 4d 1a 40
       6.592024967130408 6.575744007090726
000140 69 f0 11 9e ad 38 1a 40 7c 2c cc d0 be 23 1a 40
       6.555349798054615 6.5349075913064745
000150 d8 7a cc ac f6 12 1a 40 9c 1f 3a 13 f1 fd 19 40
       6.518519115429363 6.49798994104631
000160 a2 2c c2 b9 de e8 19 40 c1 2c e4 90 bf d3 19 40
       6.477412130810224 6.456785453726469
000170 5c 54 f1 92 d0 c2 19 40 35 4b bd 33 9a ad 19 40
       6.440248771648012 6.419533546856475
000180 16 e5 23 d9 56 98 19 40 32 89 37 73 06 83 19 40
       6.398768799606179 6.377954292549747
000190 16 67 34 77 61 69 19 40 62 5d 22 26 f4 53 19 40
       6.352910864423185 6.331986041877231
0001a0 4e 31 fe 95 79 3e 19 40 80 f4 5c b6 f1 28 19 40
       6.311010688438115 6.289984559463051
0001b0 ee 1f b5 76 5c 13 19 40 e0 d8 24 6b 64 f9 18 40
       6.268907408528305 6.243547128795598
0001c0 d8 00 d3 83 b1 e3 18 40 04 fe 4b b1 95 c9 18 40
       6.22235685325014 6.1968600943214405
0001d0 e4 bb 61 d0 c4 b3 18 40 58 f2 c6 d3 84 99 18 40
       6.175555473294455 6.149920758264294
0001e0 4c c4 f5 f2 30 7f 18 40 14 d0 b1 0f c9 64 18 40
       6.124210163355269 6.098423238017876
0001f0 84 32 53 73 b8 4e 18 40 91 f5 79 91 2b 34 18 40
       6.076875497773134 6.050947449749757
000200 c3 9e 08 56 8a 19 18 40 f2 36 b5 a1 d4 fe 17 40
       6.024941772724278 5.9988580004553445
000210 80 66 ed 54 0a e4 17 40 11 10 09 c9 ae c4 17 40
       5.972695662488718 5.942073002985141
000220 69 2a ed 6e b7 a9 17 40 2d 3f 7b 16 ab 8e 17 40
       5.915738805032199 5.889324523231875
000230 00 53 f9 fa 01 6f 17 40 3c 2e 41 b5 c7 53 17 40
       5.858405992000144 5.831816513160046
000240 a6 ce c8 a9 e8 33 17 40 0a 03 c9 d9 7f 18 17 40
       5.800692227250385 5.773925211805144
000250 26 1e 58 25 6a f8 16 40 e3 c5 49 b4 36 d8 16 40
       5.7425924143822495 5.711146180155512
000260 53 a9 4b 4f e5 b7 16 40 46 04 bb d2 19 9c 16 40
       5.679585684769637 5.652442257561296
000270 c1 19 71 38 90 7b 16 40 6a 21 ca 08 e8 5a 16 40
       5.620667344954598 5.5887757657404595
000280 a2 58 28 cc 6f 35 16 40 28 6f 29 50 85 14 16 40
       5.552184286081827 5.520039799241012
000290 81 37 46 87 7b f3 15 40 1a 18 bc dc 92 cd 15 40
       5.487775911007589 5.450755547504764
0002a0 b8 e6 4d 37 45 ac 15 40 46 b0 c8 5e 0e 86 15 40
       5.418232788209643 5.380914193152483
0002b0 a0 bc c6 c3 7b 64 15 40 7e 07 32 78 f5 3d 15 40
       5.34812837505811 5.310506704381508
0002c0 3c 8e 72 45 44 17 15 40 56 89 8e cb 67 f0 14 40
       5.272721371762199 5.234770947050796
0002d0 fd b9 48 a9 5f c9 14 40 1e b6 1a 7c 2b a2 14 40
       5.196653981269717 5.158369006281218
0002e0 19 14 2f e0 ca 7a 14 40 07 75 5b 70 3d 53 14 40
       5.119914534448093 5.081289058286763
0002f0 28 6e 1a c6 82 2b 14 40 5c 0e 4e 35 9a fe 13 40
       5.0424910501128934 4.998635132683912
000300 36 80 28 14 7e d6 13 40 12 3d ed cf 26 a9 13 40
       4.959465327236151 4.915187119345562
000310 62 53 0e 55 a7 80 13 40 24 16 52 36 df 52 13 40
       4.875638321875927 4.830929611931001
000320 da fc ff 73 da 24 13 40 d0 53 9f 6c 98 f6 12 40
       4.785989582537889 4.740815827583859
000330 b8 12 2f 7c 18 c8 12 40 86 3b 18 fc 59 99 12 40
       4.695405903218379 4.649757327059779
000340 f5 dc 1f 43 5c 6a 12 40 0e 98 e8 ef da 35 12 40
       4.603867577380915 4.552592991420182
000350 a5 d3 e7 86 55 06 12 40 8d c0 74 bb 3b d1 11 40
       4.50618563451727 4.454329422951685
000360 a2 d2 e0 89 2b a1 11 40 dd 12 85 c6 75 6b 11 40
       4.407392649027914 4.354941465255902
000370 ee f5 38 7a 6c 35 11 40 64 e4 8d 9f 0e ff 10 40
       4.3021716210619 4.249079220805559
000380 03 74 42 2c 5b c8 10 40 07 d7 23 11 51 91 10 40
       4.195660296970348 4.141910808384416
000390 ca 57 ee 39 ef 59 10 40 54 d7 2c 8d 34 22 10 40
       4.087826638386057 4.033403592931638
0003a0 6a 0f 3e 89 fe c8 0f 40 d8 44 3f bd 0c 58 0f 40
       3.973141739088466 3.9179930481846945
0003b0 0b 7a af 14 fa da 0e 40 14 7a e5 8d 81 68 0e 40
       3.85692230377686 3.801028355184153
0003c0 2b a2 a0 43 bb e9 0d 40 e7 ac 6d 05 0c 6a 0d 40
       3.739126709308285 3.676780741128471
0003d0 ae c4 fc 74 70 e9 0c 40 60 36 27 21 e5 67 0c 40
       3.6139840259207494 3.550729998597305
0003e0 71 eb 61 85 66 e5 0b 40 0b ac 2a 09 f1 61 0b 40
       3.4870119495876044 3.422823020567653
0003f0 64 95 59 42 6a d1 0a 40 24 bd df 99 e4 4b 0a 40
       3.352253454550622 3.2870571156887696
000400 fe f5 22 8e 14 b9 09 40 15 42 8b e1 6d 31 09 40
       3.2153712372225973 3.149135362684556
000410 17 c0 7f c0 41 9c 08 40 25 73 ce ac d2 05 08 40
       3.076297286890632 3.002843236971233
000420 aa 57 36 24 1b 6e 07 40 1a 69 11 80 15 d5 06 40
       2.9287627057155605 2.8540449147523193
000430 f0 43 11 f4 bb 3a 06 40 88 9a ed 8c 08 9f 05 40
       2.7786788051384903 2.702653027535522
000440 08 c9 03 2f f5 01 05 40 3a b3 e6 94 7b 63 04 40
       2.625955931952493 2.548575557032021
000450 e4 d0 7e 72 31 b6 03 40 eb a9 30 a2 b8 14 03 40
       2.4639615006400266 2.3851177855587955
000460 79 f1 76 8e 1f 64 02 40 57 64 40 f4 89 bf 01 40
       2.298888314251766 2.2185248453284134
000470 54 22 3d f7 80 0b 01 40 88 c4 b0 bf a0 55 00 40
       2.1306170764476438 2.041810510236761
000480 aa 5c 94 22 bf 3b ff 3f d2 fb 59 c3 66 c8 fd 3f
       1.9520865774882545 1.8614261275213164
000490 ee c5 2c 86 25 6e fc 3f c7 46 92 df 31 f3 fa 3f
       1.7768912545401423 1.6843737347848433
0004a0 0a b7 46 c5 29 74 f9 3f 20 92 d7 bd 00 d3 f7 3f
       1.5908601480582 1.4890143790918344
0004b0 43 28 43 e3 35 4b f6 3f 91 5d 61 31 0e bf f4 3f
       1.3933619382319342 1.2966443947715087
0004c0 13 b6 1b 81 70 2e f3 3f ec 90 5a cf 42 99 f1 3f
       1.1988377612391374 1.0999172305828848
0004d0 17 d2 7b 31 62 bf ef 3f f4 8a a4 f3 64 81 ec 3f
       0.9921122518995301 0.8907952078482979
0004e0 ab c7 27 fa 9b 39 e9 3f 12 25 3c 6f 00 a6 e5 3f
       0.788282383522746 0.6765138790662226
0004f0 b4 ee cc 31 1d 49 e2 3f d0 4c 64 b0 5d c3 dd 3f
       0.5714250538507799 0.46504919267426903
000500 58 0e b2 4a 41 56 d6 3f fb 12 63 c0 ce b3 ce 3f
       0.3490145902107762 0.23986229318520444
000510 48 41 f3 df 95 8d c0 3f fc 77 6b dc a1 c7 81 3f
       0.1293208449847134 0.008681549586466268
000520 5e 89 8b 76 2d d8 ba bf ca 3e d1 5f ef 25 cc bf
       -0.10486110824743863 -0.21990768602926486
000530 66 97 c6 40 31 89 d5 bf 15 e8 b1 52 68 19 dd bf
       -0.33649855924374206 -0.454675751454148
000540 1e 4b d0 c5 39 ae e2 bf fc 35 96 63 7c 92 e6 bf
       -0.5837677825496461 -0.7053815789274149
000550 e6 53 16 b4 e4 84 ea bf 63 af f4 0e db 85 ee bf
       -0.8287223355606528 -0.953839806757497
000560 0e fe 2d 65 a1 22 f1 bf 3e aa 3e 76 b6 31 f3 bf
       -1.070954699738539 -1.199636899846737
000570 46 95 52 ac b8 48 f5 bf d6 ad 55 e2 d1 3d f7 bf
       -1.3302542430258923 -1.4525927392195306
000580 48 3b aa f0 c2 64 f9 bf 30 32 90 31 02 69 fb bf
       -1.5870999718642498 -1.713136857611186
000590 e9 98 87 6b db 74 fd bf cb ec 9e c8 88 88 ff bf
       -1.8410295677545554 -1.9708335720777537
0005a0 54 6c 4f 8c 23 d2 00 c0 cd df 66 fd 2a e4 01 c0
       -2.10260686509495 -2.236410121633503
0005b0 70 df 7b 05 7c fa 02 c0 05 cb 55 9b 7d fd 03 c0
       -2.372306864588545 -2.4987747321660003
0005c0 bc b5 c6 e4 52 04 05 c0 b8 38 9f 44 19 0f 06 c0
       -2.627111232103486 -2.757372413739258
0005d0 b0 d7 50 75 ef 1d 07 c0 a6 a1 2e 9e f5 30 08 c0
       -2.8896168866439993 -3.023905978963927
0005e0 aa 0a 59 6a 4d 48 09 c0 33 51 aa 3b 1d 4a 0a c0
       -3.160303908197723 -3.2861885701514892
0005f0 13 9d c6 ab b7 4f 0b c0 1f 29 5d b4 39 59 0c c0
       -3.4139245433795025 -3.543567093937909
000600 d0 85 4e a0 c1 66 0d c0 79 dc a8 45 e0 5c 0e c0
       -3.67517400016434 -3.7953496400983195
000610 74 4e ef e7 72 56 0f c0 af ac d1 57 c9 29 10 c0
       -3.917211353292993 -4.040807125256079
000620 2e c4 18 ee 2c aa 10 c0 61 ff 77 42 e0 1d 11 c0
       -4.166187019597642 -4.279175795148917
000630 1a b4 dd 25 dd a1 11 c0 e4 69 f9 85 da 18 12 c0
       -4.408070174843511 -4.524271100376129
000640 86 8e f6 ab 4a 82 12 c0 cb 6e d2 cf 57 fc 12 c0
       -4.627237975047711 -4.746428725451277
000650 4f 18 31 82 87 68 13 c0 cc a2 e0 3b 0c d6 13 c0
       -4.852079424139517 -4.95903104361123
000660 aa af a6 94 01 35 14 c0 8c 4b ba 72 16 a5 14 c0
       -5.051763842271535 -5.161218445416022
000670 db 81 fa 6f 4b 06 15 c0 2a 0d 04 b9 1e 58 15 c0
       -5.256147145905255 -5.336054697868613
000680 a9 12 f8 85 50 bb 15 c0 b0 9c 5e 87 d4 0e 16 c0
       -5.4329243595754315 -5.51448260798422
000690 e5 e6 fc 30 23 63 16 c0 d8 27 57 d6 29 a7 16 c0
       -5.596813931880864 -5.663245534009512
0006a0 bd 8e e0 21 ef fc 16 c0 3b d8 69 de cb 30 17 c0
       -5.747005967455775 -5.797652697763676
0006b0 40 f5 2c 79 6b 76 17 c0 df ec 98 56 ff aa 17 c0
       -5.865644353264827 -5.91698966320402
0006c0 50 22 15 3e e3 df 17 c0 81 58 c7 24 18 15 18 c0
       -5.9686402988814535 -6.020599913279626
0006d0 c9 d5 32 39 be 38 18 c0 87 96 28 07 89 5c 18 c0
       -6.055413144805649 -6.090366470196051
0006e0 a2 86 a1 da 78 80 18 c0 7a 98 6d be 7e 92 18 c0
       -6.125461021527061 -6.1430616144554
0006f0 cd 45 83 00 8e a4 18 c0 a4 e0 a4 aa a6 b6 18 c0
       -6.160697944652793 -6.1783701575406305
000700 a4 e0 a4 aa a6 b6 18 c0 a4 e0 a4 aa a6 b6 18 c0
       -6.1783701575406305 -6.1783701575406305
000710 a4 e0 a4 aa a6 b6 18 c0 cd 45 83 00 8e a4 18 c0
       -6.1783701575406305 -6.160697944652793
000720 7a 98 6d be 7e 92 18 c0 5e e6 6b 4b 7c 6e 18 c0
       -6.1430616144554 -6.107896021328626
000730 c2 5f 42 04 9f 4a 18 c0 06 39 82 9c e6 26 18 c0
       -6.072872225333358 -6.0379890875322015
000740 e1 1e d6 7e 96 f1 17 c0 f3 b9 11 b3 97 bc 17 c0
       -5.985925657099615 -5.934172437626773
000750 d6 97 98 42 e9 87 17 c0 8e e3 fd b4 26 42 17 c0
       -5.882725754321617 -5.814600780483387
000760 bd 8e e0 21 ef fc 16 c0 d8 27 57 d6 29 a7 16 c0
       -5.747005967455775 -5.663245534009512
000770 8a 32 fe 42 36 52 16 c0 14 8b d8 6b 54 ed 15 c0
       -5.58028511692522 -5.481767354099038
000780 eb 4f f9 38 94 89 15 c0 93 d1 a1 3d ef 26 15 c0
       -5.384354486672218 -5.288022006036402
000790 1d 47 fc 1a 37 b5 14 c0 0b 09 b7 7d ee 44 14 c0
       -5.1769680229643 -5.067316021248426
0007a0 2b 65 0c ca 51 c6 13 c0 2a 6b 80 04 7c 49 13 c0
       -4.943671376234572 -4.821762152040529
0007b0 86 c1 ca a5 1b bf 12 c0 86 bb 62 f8 d9 36 12 c0
       -4.6866289048197185 -4.553565865541605
0007c0 1a b4 dd 25 dd a1 11 c0 b2 0f 34 3a cf 00 11 c0
       -4.408070174843511 -4.250790509631701
0007d0 26 e0 8a 82 e2 70 10 c0 a2 42 dd 61 63 8e 0f c0
       -4.110239066816609 -3.944525494160488
0007e0 f2 a4 76 54 5c 41 0e c0 80 92 37 13 74 fa 0c c0
       -3.781914386625993 -3.6222917081198034
0007f0 da f6 12 5f f4 9e 0b c0 33 51 aa 3b 1d 4a 0a c0
       -3.4526145389234957 -3.2861885701514892

model1rms f8 []
000000 a4 70 3d 0a d7 a3 fc 3f
       1.79

model2params f8 [8]
000000 1a 4f e2 bc 27 26 33 40 00 00 00 00 00 00 30 40
       19.149043851138323 16.0
000010 0f 1b 96 52 6b 4d f1 3f db e2 bc b0 08 38 ef 3f
       1.0814011789349853 0.9755900813971395
000020 ea a3 2b 19 aa 35 a4 3f cd ce fb c2 cd 17 70 3f
       0.03947192723519051 0.0039289510311737
000030 e6 06 1b 90 e2 33 c2 3f bd 83 13 b8 a8 f7 2e 40
       0.14220840488820058 15.483709099180368

allpreddB2 f8 [4, 520]
000000 b3 c4 41 7c ad 1a 20 40 2a 5c f4 16 3e 83 1c 40
       8.052104838398327 7.12816654077964
000010 f0 27 d1 8f 7d 77 1c 40 ef 8c 74 aa a5 6f 1c 40
       7.116689917698736 7.109030402530364
000020 88 8d e2 8d f0 5f 1c 40 48 0e ae 0d 24 54 1c 40
       7.09369107909459 7.082168782948038
000030 45 6e 5b 8a 53 48 1c 40 4f 35 2f 01 7f 3c 1c 40
       7.070631181555261 7.059078234201777
000040 be 1f 6b 6f a6 30 1c 40 a2 1a 4e d2 c9 24 1c 40
       7.047509900010423 7.0359261379404945
000050 ee 3f 14 27 e9 18 1c 40 d0 68 cd 99 0c 09 1c 40
       7.024326906786866 7.008837130701252
000060 f4 5a 7f 6d 22 fd 1b 40 94 35 c8 29 34 f1 1b 40
       6.997201643846655 6.985550549359136
000070 a9 21 53 6d 45 e1 1b 40 5d 85 b0 92 4d d5 1b 40
       6.9699914056767875 6.958303730033859
000080 67 70 38 97 51 c9 1b 40 e2 54 b3 81 50 b9 1b 40
       6.946600306339042 6.930971170969515
000090 cb 70 80 09 48 a9 1b 40 da f8 7c d2 3c 9d 1b 40
       6.9153138622898025 6.9035523308541205
0000a0 af cf 25 5d 27 8d 1b 40 d4 6c 61 60 12 81 1b 40
       6.887845473702256 6.876046663233144
0000b0 ba 50 c9 d8 ef 70 1b 40 d2 a7 7d cf c5 60 1b 40
       6.860289943015397 6.844504587215811
0000c0 de 12 7f 3d 94 50 1b 40 e8 91 0f 1a 6a 44 1b 40
       6.828690491562808 6.816810996246637
0000d0 50 db e3 47 2b 34 1b 40 2e 2f 94 d9 e4 23 1b 40
       6.8009463532278716 6.785052680654003
0000e0 90 0c fc c7 96 13 1b 40 79 df ec 0b 41 03 1b 40
       6.769129872092108 6.7531778205228585
0000f0 e6 ed 2d 9e e3 f2 1a 40 9e 44 7c 77 7e e2 1a 40
       6.737196418336202 6.7211855573270025
000100 00 33 e8 1f f5 cd 1a 40 3a 2b 52 7e 7e bd 1a 40
       6.7011303887818485 6.685052846684636
000110 85 4f e8 0b 00 ad 1a 40 c2 5f 3b c1 79 9c 1a 40
       6.668945489935031 6.652808207749276
000120 af 2e 60 d0 c6 87 1a 40 2a 62 b6 c3 2e 77 1a 40
       6.632594352598672 6.616389329916766
000130 48 68 7d 88 65 62 1a 40 c0 11 83 93 bb 51 1a 40
       6.596090443281419 6.579817108988607
000140 12 26 b6 dd db 3c 1a 40 c4 fc 9a d9 1f 2c 1a 40
       6.559432472460246 6.5430902481886655
000150 90 e2 66 78 29 17 1a 40 aa 4e c2 69 26 02 1a 40
       6.52261913421593 6.5020996594281915
000160 50 9d cd ff 4d f1 19 40 c8 0e 90 f8 33 dc 19 40
       6.485649105953897 6.465042003433787
000170 51 ca 91 18 0d c7 19 40 82 e1 24 50 d9 b1 19 40
       6.444385894678434 6.4236805460462865
000180 82 a0 7e 8f 98 9c 19 40 32 46 b7 c6 4a 87 19 40
       6.402925722221086 6.382121186195535
000190 94 bd c9 e5 ef 71 19 40 4d 55 93 dc 87 5c 19 40
       6.361266699255243 6.340362020962243
0001a0 7f 42 7e 5c c6 42 19 40 58 22 ae 27 41 2d 19 40
       6.315209813314708 6.294193859103494
0001b0 4a 95 28 96 ae 17 19 40 9f 47 5e c6 b9 fd 18 40
       6.273126932360649 6.247778987411862
0001c0 8f cd 90 94 09 e8 18 40 d4 2d be 06 f1 cd 18 40
       6.226599046075889 6.2011147550178585
0001d0 46 0c d9 e2 22 b8 18 40 f2 43 06 34 e6 9d 18 40
       6.179820580003314 6.154198468096171
0001e0 1e 7d 00 a6 95 83 18 40 38 f7 7c 96 98 6d 18 40
       6.128500551013785 6.107027388932515
0001f0 54 81 53 4b 23 53 18 40 51 92 b8 ca 99 38 18 40
       6.081189324352028 6.05527416945968
000200 09 8e b5 f5 fb 1d 18 40 fb 77 0c ad 49 03 18 40
       6.029281462866046 6.0032107390270495
000210 80 66 ed 54 0a e4 17 40 1b 94 d5 4f 2b c9 17 40
       5.972695662488718 5.946454284106063
000220 4b 02 48 72 37 ae 17 40 7c e8 d3 9b 2e 93 17 40
       5.920133386273458 5.893732485588881
000230 6f d0 e9 9e 89 73 17 40 fe 54 22 e7 52 58 17 40
       5.862829669018637 5.8362537493424025
000240 cc 0e 56 08 78 38 17 40 0a 03 c9 d9 7f 18 17 40
       5.805145387890388 5.773925211805144
000250 66 5d 0f 59 01 fd 16 40 dc b8 e4 2a d2 dc 16 40
       5.747075454294963 5.71564547558793
000260 36 ef ba 10 85 bc 16 40 46 04 bb d2 19 9c 16 40
       5.684101354035922 5.652442257561296
000270 c1 19 71 38 90 7b 16 40 6a 21 ca 08 e8 5a 16 40
       5.620667344954598 5.5887757657404595
000280 24 84 11 0a 21 3a 16 40 28 6f 29 50 85 14 16 40
       5.556766660040953 5.520039799241012
000290 81 37 46 87 7b f3 15 40 1a 18 bc dc 92 cd 15 40
       5.487775911007589 5.450755547504764
0002a0 b8 e6 4d 37 45 ac 15 40 46 b0 c8 5e 0e 86 15 40
       5.418232788209643 5.380914193152483
0002b0 22 8a b8 4f ad 5f 15 40 7e 07 32 78 f5 3d 15 40
       5.343434568060305 5.310506704381508
0002c0 3c 8e 72 45 44 17 15 40 56 89 8e cb 67 f0 14 40
       5.272721371762199 5.234770947050796
0002d0 fd b9 48 a9 5f c9 14 40 93 71 bb d8 41 9d 14 40
       5.196653981269717 5.15357149738374
0002e0 02 30 e2 a7 db 75 14 40 08 5f 63 96 48 4e 14 40
       5.115095732860938 5.07644877416147
0002f0 9c e5 43 fe 8c 21 14 40 d4 b0 b3 38 99 f9 13 40
       5.032764408964251 4.993748556106045
000300 12 d9 7b cb 6f cc 13 40 bc a9 47 5d 0b 9f 13 40
       4.949645213541105 4.90531678914925
000310 c2 4d 1f 53 6b 71 13 40 56 46 a5 0f 8f 43 13 40
       4.8607609737259185 4.815975422346659
000320 07 b2 09 f3 75 15 13 40 0c 3f fd 5a 1f e7 12 40
       4.770957753626596 4.725705548960615
000330 00 c6 a3 a2 8a b8 12 40 d8 76 49 49 7f 84 12 40
       4.680216351743638 4.629391808613683
000340 b6 28 03 40 65 55 12 40 5b 62 6b 1c c4 20 12 40
       4.583394050782024 4.531998104147159
000350 fb 48 35 c6 d2 eb 11 40 c6 c9 9c 68 e7 bb 11 40
       4.4802962274572975 4.433499941415397
000360 10 80 29 09 5b 86 11 40 a4 62 b7 a1 7b 50 11 40
       4.381206648977255 4.328596617525054
000370 2f 27 51 fa d7 14 11 40 44 52 56 e4 46 de 10 40
       4.270355139926138 4.21706730629791
000380 02 e1 9c 93 5f a7 10 40 54 4d 0c db 95 6a 10 40
       4.163450533342486 4.104087278962954
000390 20 17 f0 0b 61 2d 10 40 d8 98 71 ff bc ea 0f 40
       4.044315516022635 3.98961829724713
0003a0 4d 24 25 34 b2 6e 0f 40 3e ba c0 6c c8 f1 0e 40
       3.9290508340678003 3.8680580612483757
0003b0 14 7a e5 8d 81 68 0e 40 2b a2 a0 43 bb e9 0d 40
       3.801028355184153 3.739126709308285
0003c0 e7 ac 6d 05 0c 6a 0d 40 92 23 a4 91 b3 dd 0c 40
       3.676780741128471 3.608252656766532
0003d0 6e af 78 66 3d 50 0c 40 b8 cf c5 2c 92 cd 0b 40
       3.539179611738226 3.4753764627330064
0003e0 1c 27 1d 7c eb 3d 0b 40 52 2f 91 67 19 ad 0a 40
       3.4052343078991623 3.334521111601057
0003f0 51 6a c7 42 de 0e 0a 40 6a 13 20 86 8c 7b 09 40
       3.257259866438553 3.1853266218699234
000400 f8 8b 99 d8 ff e6 08 40 08 fb ea 8d a8 44 08 40
       3.112792675195575 3.033524616941012
000410 ab 71 61 7e d2 a0 07 40 20 42 34 8c 76 fb 06 40
       2.95352648482204 2.872784705490872
000420 93 7b 52 66 8d 54 06 40 90 7d 71 86 0f ac 05 40
       2.7912853235170103 2.7090139869103
000430 08 c9 03 2f f5 01 05 40 1c 89 05 b4 ee 48 04 40
       2.625955931952493 2.5356115402402235
000440 70 e7 a1 fb 61 9b 03 40 f7 f0 dd e3 91 de 02 40
       2.4508704813751407 2.3586767007928944
000450 9d d0 3f 3d bb 1f 02 40 bb 84 83 c8 d2 5e 01 40
       2.2654938492870103 2.1713004746567015
000460 92 6e b1 e7 cc 9b 00 40 28 c1 6c de e4 90 ff 3f
       2.07607441911916 1.9728745163411734
000470 6f e8 87 ca c8 01 fe 3f 3f 24 4d aa 23 51 fc 3f
       1.8754356299746424 1.7698094036479828
000480 54 6d a0 dc 88 b8 fa 3f ac 6b 81 09 79 fd f8 3f
       1.670052396605418 1.5618830081282153
000490 96 8c 99 dc d2 3c f7 3f 62 78 89 cc 71 76 f5 3f
       1.4523495309047454 1.3414171209074301
0004a0 fe 6c fa 5e 4a 8b f3 3f 5c 0f b4 c8 97 b8 f1 3f
       1.2215064725958764 1.1075666275000549
0004b0 28 07 5b 7e e1 7f ef 3f ed ba f3 c2 79 c0 eb 3f
       0.9843604534037 0.867245560422672
0004c0 9e 6a 7a d7 a5 b2 e7 3f 62 b1 c6 5c 75 95 e3 3f
       0.7405575951155077 0.6119944393190446
0004d0 66 62 af 4f e4 d0 de 3f 58 0e b2 4a 41 56 d6 3f
       0.48149974614856317 0.3490145902107762
0004e0 22 a1 71 0f fe 73 cb 3f 90 f1 9d ba 3a ec b3 3f
       0.21447730783553093 0.07782332473829556
0004f0 34 82 4f 98 38 dc b1 bf 20 4b e2 e0 2a 02 cb bf
       -0.06976655691642791 -0.2110036466661649
000500 bd a0 77 c3 5c b1 d6 bf 67 16 4f 17 01 50 e0 bf
       -0.3545753392086331 -0.509766145253434
000510 c7 01 10 07 a8 11 e5 bf c1 2e 2d 85 a8 36 ea bf
       -0.65840531711006 -0.8191721535781299
000520 8d cc 48 65 dc 24 ef bf 9a 7f f0 2a 79 3d f2 bf
       -0.9732496240816474 -1.1400081326791907
000530 b9 e0 8f b5 8a cc f4 bf 94 c7 8e da 06 92 f7 bf
       -1.299936970926906 -1.4731510674869002
000540 40 62 77 6e f4 3a fa bf d2 f3 b9 f9 02 1d fd bf
       -1.6393932643023987 -1.819582915776881
000550 c6 a6 08 c1 ec e1 ff bf ec f9 15 30 a0 5a 01 c0
       -1.9926574268705948 -2.169250846548712
000560 be 9a 3a 80 cb cb 02 c0 9a c5 2c c4 c9 44 04 c0
       -2.3495092409023917 -2.5335879636920255
000570 84 2e b3 b9 f1 c5 05 c0 68 1e 2a 3a c3 36 07 c0
       -2.721652460842792 -2.9017395538428907
000580 c9 02 a4 c6 c8 c8 08 c0 33 51 aa 3b 1d 4a 0a c0
       -3.0980391997148655 -3.2861885701514892
000590 36 0c 78 e0 f9 d3 0b c0 9b c0 b0 65 9e 4b 0d c0
       -3.478503945983472 -3.6619232124867955
0005a0 af 44 30 59 18 e7 0e c0 0b 94 9d f4 f5 37 10 c0
       -3.862839409623653 -4.054649183385673
0005b0 4e 91 70 cf 4f f2 10 c0 08 dc 54 5f 76 bf 11 c0
       -4.236632577176648 -4.43697499232713
0005c0 4b 86 31 01 27 73 12 c0 82 d1 82 a6 00 3a 13 c0
       -4.612453478477231 -4.806643106207391
0005d0 79 33 fb 8b 96 f5 13 c0 1d 47 fc 1a 37 b5 14 c0
       -4.989832102973076 -5.1769680229643
0005e0 0e 45 8d 67 93 68 15 c0 0a 41 e8 b9 a0 1f 16 c0
       -5.352124803540631 -5.530886559296286
0005f0 7e ee e5 5c 5f c9 16 c0 40 f5 2c 79 6b 76 17 c0
       -5.696652843030845 -5.865644353264827
000600 81 58 c7 24 18 15 18 c0 a4 e0 a4 aa a6 b6 18 c0
       -6.020599913279626 -6.1783701575406305
000610 6a 56 62 44 c3 48 19 c0 ab eb a3 9b 50 dd 19 c0
       -6.321057384969757 -6.4661278075026685
000620 7f 5c fd 6b 5d 61 1a c0 3e 1f 3a b1 67 e7 1a c0
       -6.59508293851752 -6.725981492207039
000630 55 fe 6c 35 ed 5b 1b c0 88 c1 ff 2c 35 be 1b c0
       -6.839772066857752 -6.935749724493128
000640 42 37 00 44 96 21 1c c0 db 73 dd d4 16 86 1c c0
       -7.032799780381369 -7.130946470276252
000650 00 9b 3c 13 51 d7 1c c0 24 ff 84 56 ba 14 1d c0
       -7.210270214628281 -7.270242072932692
000660 36 0b 53 e7 90 52 1d c0 2e 09 a2 17 08 7c 1d c0
       -7.330630888408271 -7.371124619736561
000670 66 3a 45 00 b1 a5 1d c0 0a 3d 15 3f 98 ba 1d c0
       -7.4118080179456225 -7.43222139899377
000680 0a 3d 15 3f 98 ba 1d c0 0a 3d 15 3f 98 ba 1d c0
       -7.43222139899377 -7.43222139899377
000690 0a 3d 15 3f 98 ba 1d c0 66 3a 45 00 b1 a5 1d c0
       -7.43222139899377 -7.4118080179456225
0006a0 2e 09 a2 17 08 7c 1d c0 36 0b 53 e7 90 52 1d c0
       -7.371124619736561 -7.330630888408271
0006b0 92 3b 37 f9 4a 29 1d c0 72 99 ca 71 bd eb 1c c0
       -7.29032506370176 -7.230214860907255
0006c0 aa 94 b9 9d 53 9a 1c c0 14 c0 f4 d4 a6 49 1c c0
       -7.150709595157574 -7.07192547553861
0006d0 6b ee a5 86 d3 e5 1b c0 27 3d cf db 1b 83 1b c0
       -6.974439720037121 -6.878035959743364
0006e0 1f 70 49 9a 79 21 1b c0 74 aa c9 35 b6 ad 1a c0
       -6.782690439922617 -6.669640388902383
0006f0 2e 92 7c 25 88 28 1a c0 d4 de c4 11 51 a5 19 c0
       -6.5395818574220765 -6.411442067757623
000700 78 16 80 5a 02 24 19 c0 7a 98 6d be 7e 92 18 c0
       -6.285165227954728 -6.1430616144554
000710 0e 74 a7 c8 52 03 18 c0 91 c0 a2 79 f6 64 17 c0
       -6.003245482655087 -5.848596478041274
000720 7e ee e5 5c 5f c9 16 c0 62 f7 6a 0f 75 30 16 c0
       -5.696652843030845 -5.547321549323756
000730 eb 4f f9 38 94 89 15 c0 1d 1f 7f 2f c6 e5 14 c0
       -5.384354486672218 -5.224388830312617
000740 aa af a6 94 01 35 14 c0 76 fa 31 00 4d 97 13 c0
       -5.051763842271535 -4.897754672098577
000750 27 fb 2f 3d ac dd 12 c0 86 bb 62 f8 d9 36 12 c0
       -4.716477352193386 -4.553565865541605
000760 a7 57 24 0e 5d 84 11 c0 bf 1c 68 13 63 d5 10 c0
       -4.3792612275773655 -4.208385756711492
000770 af ac d1 57 c9 29 10 c0 af 44 30 59 18 e7 0e c0
       -4.040807125256079 -3.862839409623653
000780 04 50 40 78 ef 81 0d c0 e6 59 b6 4b ce 23 0c c0
       -3.6884450335146557 -3.5174833216690216
000790 1f b6 ef 57 6f cc 0a c0 aa a4 e2 84 ea 61 09 c0
       -3.3498217458752744 -3.1728105909029027
0007a0 c6 9d 91 44 a3 fe 07 c0 be 39 c6 fe 50 a2 06 c0
       -2.999334846204621 -2.8292560486072196
0007b0 19 cc 1e 4a af 4c 05 c0 05 cb 55 9b 7d fd 03 c0
       -2.6624437132500245 -2.4987747321660003
0007c0 f0 6a 00 fc 7e b4 02 c0 ec f9 15 30 a0 5a 01 c0
       -2.338132828486202 -2.169250846548712
0007d0 71 da 20 2b 5a 07 00 c0 e6 5f d1 7f dc a0 fd bf
       -2.0035899514580753 -1.8517727845082788
0007e0 09 d8 3f 0c 72 12 fb bf 1c b6 31 99 d9 8f f8 bf
       -1.6920032957546047 -1.5351196273944714
0007f0 22 a2 1d c6 a7 18 f6 bf c6 d6 51 fa 7f 83 f3 bf
       -1.3810193766495407 -1.2196044710266718

model2rms f8 []
000000 7b 14 ae 47 e1 7a ec 3f
       0.89

allslopepred f8 [4, 8]
000000 05 82 ea 34 8f 2f 13 40 6b 4b 42 66 af 25 11 40
       4.796444727719522 4.28680190829878
000010 ad 32 f1 15 d9 73 0a 40 3a 40 a7 ce 48 0e 00 40
       3.306566401885297 2.006974806288807
000020 ee e8 d4 4f 9c 9b f5 3f 4c be 89 68 65 3c f5 3f
       1.3504908674645395 1.3272451480405776
000030 e0 99 d1 f4 69 82 f7 3f 6f 23 22 b4 37 de f7 3f
       1.4693393290741525 1.4917523418864354
000040 4a 90 04 de 8f 3b 15 40 c0 cd 43 b9 19 1b 10 40
       5.308165997532408 4.026465315593157
000050 21 d2 e1 ae ed bb 06 40 ab a5 d9 23 6c 09 fc 3f
       2.841761938349251 1.752300396003515
000060 8e 9f 1a 7c 8d 7b f5 3f d8 d8 7f 0d d4 e4 f5 3f
       1.3426642272770297 1.3683662917442714
000070 49 9e 87 26 98 3f f7 3f 2a 62 74 ac 60 9f f7 3f
       1.4530259614056311 1.4764105545529085
000080 05 82 ea 34 8f 2f 13 40 e6 83 5a 36 1e d0 11 40
       4.796444727719522 4.453240250849353
000090 4a 17 95 ef 0b fb 08 40 d6 53 4c a2 a0 9d fd 3f
       3.122581359612842 1.8509832706233644
0000a0 c0 c5 42 3f 47 7a f5 3f e2 d1 4c 8e af bf f7 3f
       1.3423531027914208 1.4842982824894695
0000b0 d0 74 7c e9 68 06 f8 3f 95 14 02 77 1e ff f7 3f
       1.5015648956826233 1.4997849129443115
0000c0 05 82 ea 34 8f 2f 13 40 47 74 36 59 a5 36 14 40
       4.796444727719522 5.0533651294218265
0000d0 f1 0a 57 45 12 e8 11 40 fc dc 50 54 35 67 0f 40
       4.476632197797458 3.9253946864297387
0000e0 fa 3e 3c 0c bb cf 0c 40 62 be 05 01 e8 6a 09 40
       3.6014309841046925 3.1772003250005563
0000f0 86 d2 a2 90 29 8b 0e 40 b2 0f 64 66 76 28 0f 40
       3.8179503726663055 3.89475708001006

allslopepred2 f8 [4, 8]
000000 22 f2 86 48 44 3a 19 40 aa 8e fd c0 83 4b 15 40
       6.30690110515255 5.323744788623722
000010 98 c3 34 af 71 03 12 40 ac 4c f2 af 59 99 00 40
       4.503363359065496 2.0748780961817683
000020 62 83 7a bd db 04 f5 3f b6 c6 5c f7 16 a6 f5 3f
       1.3136861230379613 1.3530492460817363
000030 79 99 cf 8e 0f 99 f5 3f 8d 1f d0 c7 ad 89 f6 3f
       1.3498683527519388 1.4086129956430995
000040 5d 58 70 8c b5 de 19 40 53 5b 49 c7 06 75 17 40
       6.467489427906995 5.864283670284595
000050 35 4b ea e4 bb 60 10 40 09 6b ad 30 c9 e6 fc 3f
       4.094466759491117 1.8063442136250976
000060 f7 69 6b cc cf 0e f6 3f 31 cf df b9 35 62 f6 3f
       1.3786161408557953 1.3989770184243293
000070 fc 3e 5d ab 32 44 f6 3f b0 73 24 25 91 a9 f6 3f
       1.3916498845973697 1.416398186767065
000080 22 f2 86 48 44 3a 19 40 aa 8e fd c0 83 4b 15 40
       6.30690110515255 5.323744788623722
000090 bd b1 b5 23 01 65 0f 40 ba 6d 36 72 52 ae ff 3f
       3.9243185796569535 1.98005909551908
0000a0 0b 6d 65 3c 2a 92 f7 3f 9c d2 07 ed 36 58 f7 3f
       1.4731848105646488 1.4590367564207218
0000b0 6b 26 55 bb 22 b8 f6 3f 60 89 8d 32 b0 d4 f5 3f
       1.4199549977951402 1.3644258475038313
0000c0 22 f2 86 48 44 3a 19 40 25 b7 3f 95 d2 f0 18 40
       6.30690110515255 6.235178310407524
0000d0 25 b7 3f 95 d2 f0 18 40 e7 87 6c 62 41 62 18 40
       6.235178310407524 6.095952546953391
0000e0 4f 40 a7 ff 5b ce 11 40 17 55 c2 07 11 46 0e 40
       4.451522821982578 3.7842121702366387
0000f0 d1 6e 0c 25 9d b3 08 40 fa be e5 86 75 bc 05 40
       3.087702073518678 2.7170210398543277
